…
, scale=0.5, seed=42, shear=0.0, show=False, show_boxes=True, show_conf=True, show_labels=True, simplify=True, single_cls=False, source=None, split=val, stream_buffer=False, task=detect, time=None, tracker=botsort.yaml, translate=0.1, val=True, verbose=True, vid_stride=1, visualize=False, warmup_bias_lr=0.1, warmup_epochs=3.0, warmup_momentum=0.8, weight_decay=0.0005, workers=4, workspace=None
Overriding model.yaml nc=80 with nc=5

                   from  n    params  module                                       arguments                     
  0                  -1  1       928  ultralytics.nn.modules.conv.Conv             [3, 32, 3, 2]                 
  1                  -1  1     18560  ultralytics.nn.modules.conv.Conv             [32, 64, 3, 2]                
  2                  -1  1     31104  ultralytics.nn.modules.block.ELAN1           [64, 64, 64, 32]              
  3                  -1  1     73984  ultralytics.nn.modules.block.AConv           [64, 128]                     
  4                  -1  1    258432  ultralytics.nn.modules.block.RepNCSPELAN4    [128, 128, 128, 64, 3]        
  5                  -1  1    221568  ultralytics.nn.modules.block.AConv           [128, 192]                    
  6                  -1  1    579648  ultralytics.nn.modules.block.RepNCSPELAN4    [192, 192, 192, 96, 3]        
  7                  -1  1    442880  ultralytics.nn.modules.block.AConv           [192, 256]                    
  8                  -1  1   1028864  ultralytics.nn.modules.block.RepNCSPELAN4    [256, 256, 256, 128, 3]       
  9                  -1  1    164608  ultralytics.nn.modules.block.SPPELAN         [256, 256, 128]               
 10                  -1  1         0  torch.nn.modules.upsampling.Upsample         [None, 2, 'nearest']          
 11             [-1, 6]  1         0  ultralytics.nn.modules.conv.Concat           [1]                           
 12                  -1  1    628800  ultralytics.nn.modules.block.RepNCSPELAN4    [448, 192, 192, 96, 3]        
 13                  -1  1         0  torch.nn.modules.upsampling.Upsample         [None, 2, 'nearest']          
 14             [-1, 4]  1         0  ultralytics.nn.modules.conv.Concat           [1]                           
 15                  -1  1    283008  ultralytics.nn.modules.block.RepNCSPELAN4    [320, 128, 128, 64, 3]        
 16                  -1  1    110784  ultralytics.nn.modules.block.AConv           [128, 96]                     
 17            [-1, 12]  1         0  ultralytics.nn.modules.conv.Concat           [1]                           
 18                  -1  1    598080  ultralytics.nn.modules.block.RepNCSPELAN4    [288, 192, 192, 96, 3]        
 19                  -1  1    221440  ultralytics.nn.modules.block.AConv           [192, 128]                    
 20             [-1, 9]  1         0  ultralytics.nn.modules.conv.Concat           [1]                           
 21                  -1  1   1061632  ultralytics.nn.modules.block.RepNCSPELAN4    [384, 256, 256, 128, 3]       
 22        [15, 18, 21]  1   1565023  ultralytics.nn.modules.head.Detect           [5, 16, None, [128, 192, 256]]
YOLOv9s summary: 544 layers, 7,289,343 parameters, 7,289,327 gradients, 27.4 GFLOPs

Transferred 1333/1339 items from pretrained weights
Freezing layer 'model.22.dfl.conv.weight'
[34m[1mAMP: [0mrunning Automatic Mixed Precision (AMP) checks...
[34m[1mAMP: [0mchecks passed вң…
[34m[1mtrain: [0mFast image access вң… (ping: 0.0Вұ0.0 ms, read: 295.6Вұ159.0 MB/s, size: 55.1 KB)
…
, scale=0.5, seed=42, shear=0.0, show=False, show_boxes=True, show_conf=True, show_labels=True, simplify=True, single_cls=False, source=None, split=val, stream_buffer=False, task=detect, time=None, tracker=botsort.yaml, translate=0.1, val=True, verbose=True, vid_stride=1, visualize=False, warmup_bias_lr=0.1, warmup_epochs=3.0, warmup_momentum=0.8, weight_decay=0.0005, workers=4, workspace=None
Overriding model.yaml nc=80 with nc=8

                   from  n    params  module                                       arguments                     
  0                  -1  1       928  ultralytics.nn.modules.conv.Conv             [3, 32, 3, 2]                 
  1                  -1  1     18560  ultralytics.nn.modules.conv.Conv             [32, 64, 3, 2]                
  2                  -1  1     31104  ultralytics.nn.modules.block.ELAN1           [64, 64, 64, 32]              
  3                  -1  1     73984  ultralytics.nn.modules.block.AConv           [64, 128]                     
  4                  -1  1    258432  ultralytics.nn.modules.block.RepNCSPELAN4    [128, 128, 128, 64, 3]        
  5                  -1  1    221568  ultralytics.nn.modules.block.AConv           [128, 192]                    
  6                  -1  1    579648  ultralytics.nn.modules.block.RepNCSPELAN4    [192, 192, 192, 96, 3]        
  7                  -1  1    442880  ultralytics.nn.modules.block.AConv           [192, 256]                    
  8                  -1  1   1028864  ultralytics.nn.modules.block.RepNCSPELAN4    [256, 256, 256, 128, 3]       
  9                  -1  1    164608  ultralytics.nn.modules.block.SPPELAN         [256, 256, 128]               
 10                  -1  1         0  torch.nn.modules.upsampling.Upsample         [None, 2, 'nearest']          
 11             [-1, 6]  1         0  ultralytics.nn.modules.conv.Concat           [1]                           
 12                  -1  1    628800  ultralytics.nn.modules.block.RepNCSPELAN4    [448, 192, 192, 96, 3]        
 13                  -1  1         0  torch.nn.modules.upsampling.Upsample         [None, 2, 'nearest']          
 14             [-1, 4]  1         0  ultralytics.nn.modules.conv.Concat           [1]                           
 15                  -1  1    283008  ultralytics.nn.modules.block.RepNCSPELAN4    [320, 128, 128, 64, 3]        
 16                  -1  1    110784  ultralytics.nn.modules.block.AConv           [128, 96]                     
 17            [-1, 12]  1         0  ultralytics.nn.modules.conv.Concat           [1]                           
 18                  -1  1    598080  ultralytics.nn.modules.block.RepNCSPELAN4    [288, 192, 192, 96, 3]        
 19                  -1  1    221440  ultralytics.nn.modules.block.AConv           [192, 128]                    
 20             [-1, 9]  1         0  ultralytics.nn.modules.conv.Concat           [1]                           
 21                  -1  1   1061632  ultralytics.nn.modules.block.RepNCSPELAN4    [384, 256, 256, 128, 3]       
 22        [15, 18, 21]  1   1566184  ultralytics.nn.modules.head.Detect           [8, 16, None, [128, 192, 256]]
YOLOv9s summary: 544 layers, 7,290,504 parameters, 7,290,488 gradients, 27.4 GFLOPs

Transferred 1333/1339 items from pretrained weights
Freezing layer 'model.22.dfl.conv.weight'
[34m[1mAMP: [0mrunning Automatic Mixed Precision (AMP) checks...
[34m[1mAMP: [0mchecks passed вң…
[34m[1mtrain: [0mFast image access вң… (ping: 0.0Вұ0.0 ms, read: 296.7Вұ47.7 MB/s, size: 65.5 KB)
…
